module {
  func.func @main(%arg0: tensor<1x1x28x28xf32>) -> tensor<1x10xf32> {
    %cst = stablehlo.constant dense_resource<torch_tensor_10_torch.float32> : tensor<10xf32>
    %cst_0 = stablehlo.constant dense_resource<torch_tensor_10_84_torch.float32> : tensor<10x84xf32>
    %cst_1 = stablehlo.constant dense_resource<torch_tensor_84_torch.float32> : tensor<84xf32>
    %cst_2 = stablehlo.constant dense_resource<torch_tensor_84_120_torch.float32> : tensor<84x120xf32>
    %cst_3 = stablehlo.constant dense_resource<torch_tensor_120_torch.float32> : tensor<120xf32>
    %cst_4 = stablehlo.constant dense_resource<torch_tensor_120_256_torch.float32> : tensor<120x256xf32>
    %cst_5 = stablehlo.constant dense_resource<torch_tensor_16_torch.float32> : tensor<16xf32>
    %cst_6 = stablehlo.constant dense_resource<torch_tensor_16_6_5_5_torch.float32> : tensor<16x6x5x5xf32>
    %cst_7 = stablehlo.constant dense_resource<torch_tensor_6_1_5_5_torch.float32> : tensor<6x1x5x5xf32>
    %cst_8 = stablehlo.constant dense_resource<torch_tensor_6_torch.float32> : tensor<6xf32>
    %cst_9 = stablehlo.constant dense<0.000000e+00> : tensor<1x6x24x24xf32>
    %cst_10 = stablehlo.constant dense<0xFF800000> : tensor<f32>
    %cst_11 = stablehlo.constant dense<0.000000e+00> : tensor<1x16x8x8xf32>
    %cst_12 = stablehlo.constant dense<0.000000e+00> : tensor<1x120xf32>
    %cst_13 = stablehlo.constant dense<0.000000e+00> : tensor<1x84xf32>
    %0 = stablehlo.convolution(%arg0, %cst_7) dim_numbers = [b, f, 0, 1]x[o, i, 0, 1]->[b, f, 0, 1], window = {stride = [1, 1], pad = [[0, 0], [0, 0]], rhs_dilate = [1, 1]} {batch_group_count = 1 : i64, feature_group_count = 1 : i64} : (tensor<1x1x28x28xf32>, tensor<6x1x5x5xf32>) -> tensor<1x6x24x24xf32>
    %1 = stablehlo.reshape %cst_8 : (tensor<6xf32>) -> tensor<6x1x1xf32>
    %2 = stablehlo.broadcast_in_dim %0, dims = [0, 1, 2, 3] : (tensor<1x6x24x24xf32>) -> tensor<1x6x24x24xf32>
    %3 = stablehlo.broadcast_in_dim %1, dims = [1, 2, 3] : (tensor<6x1x1xf32>) -> tensor<1x6x24x24xf32>
    %4 = stablehlo.add %2, %3 : tensor<1x6x24x24xf32>
    %5 = stablehlo.maximum %4, %cst_9 : tensor<1x6x24x24xf32>
    %6 = "stablehlo.reduce_window"(%5, %cst_10) <{padding = dense<0> : tensor<4x2xi64>, window_dilations = array<i64: 1, 1, 1, 1>, window_dimensions = array<i64: 1, 1, 2, 2>, window_strides = array<i64: 1, 1, 2, 2>}> ({
    ^bb0(%arg1: tensor<f32>, %arg2: tensor<f32>):
      %32 = stablehlo.maximum %arg1, %arg2 : tensor<f32>
      stablehlo.return %32 : tensor<f32>
    }) : (tensor<1x6x24x24xf32>, tensor<f32>) -> tensor<1x6x12x12xf32>
    %7 = stablehlo.convolution(%6, %cst_6) dim_numbers = [b, f, 0, 1]x[o, i, 0, 1]->[b, f, 0, 1], window = {stride = [1, 1], pad = [[0, 0], [0, 0]], rhs_dilate = [1, 1]} {batch_group_count = 1 : i64, feature_group_count = 1 : i64} : (tensor<1x6x12x12xf32>, tensor<16x6x5x5xf32>) -> tensor<1x16x8x8xf32>
    %8 = stablehlo.reshape %cst_5 : (tensor<16xf32>) -> tensor<16x1x1xf32>
    %9 = stablehlo.broadcast_in_dim %7, dims = [0, 1, 2, 3] : (tensor<1x16x8x8xf32>) -> tensor<1x16x8x8xf32>
    %10 = stablehlo.broadcast_in_dim %8, dims = [1, 2, 3] : (tensor<16x1x1xf32>) -> tensor<1x16x8x8xf32>
    %11 = stablehlo.add %9, %10 : tensor<1x16x8x8xf32>
    %12 = stablehlo.maximum %11, %cst_11 : tensor<1x16x8x8xf32>
    %13 = "stablehlo.reduce_window"(%12, %cst_10) <{padding = dense<0> : tensor<4x2xi64>, window_dilations = array<i64: 1, 1, 1, 1>, window_dimensions = array<i64: 1, 1, 2, 2>, window_strides = array<i64: 1, 1, 2, 2>}> ({
    ^bb0(%arg1: tensor<f32>, %arg2: tensor<f32>):
      %32 = stablehlo.maximum %arg1, %arg2 : tensor<f32>
      stablehlo.return %32 : tensor<f32>
    }) : (tensor<1x16x8x8xf32>, tensor<f32>) -> tensor<1x16x4x4xf32>
    %14 = stablehlo.reshape %13 : (tensor<1x16x4x4xf32>) -> tensor<1x256xf32>
    %15 = stablehlo.transpose %cst_4, dims = [1, 0] : (tensor<120x256xf32>) -> tensor<256x120xf32>
    %16 = stablehlo.dot_general %14, %15, contracting_dims = [1] x [0] : (tensor<1x256xf32>, tensor<256x120xf32>) -> tensor<1x120xf32>
    %17 = stablehlo.broadcast_in_dim %16, dims = [0, 1] : (tensor<1x120xf32>) -> tensor<1x120xf32>
    %18 = stablehlo.broadcast_in_dim %cst_3, dims = [1] : (tensor<120xf32>) -> tensor<1x120xf32>
    %19 = stablehlo.add %17, %18 : tensor<1x120xf32>
    %20 = stablehlo.maximum %19, %cst_12 : tensor<1x120xf32>
    %21 = stablehlo.transpose %cst_2, dims = [1, 0] : (tensor<84x120xf32>) -> tensor<120x84xf32>
    %22 = stablehlo.dot_general %20, %21, contracting_dims = [1] x [0] : (tensor<1x120xf32>, tensor<120x84xf32>) -> tensor<1x84xf32>
    %23 = stablehlo.broadcast_in_dim %22, dims = [0, 1] : (tensor<1x84xf32>) -> tensor<1x84xf32>
    %24 = stablehlo.broadcast_in_dim %cst_1, dims = [1] : (tensor<84xf32>) -> tensor<1x84xf32>
    %25 = stablehlo.add %23, %24 : tensor<1x84xf32>
    %26 = stablehlo.maximum %25, %cst_13 : tensor<1x84xf32>
    %27 = stablehlo.transpose %cst_0, dims = [1, 0] : (tensor<10x84xf32>) -> tensor<84x10xf32>
    %28 = stablehlo.dot_general %26, %27, contracting_dims = [1] x [0] : (tensor<1x84xf32>, tensor<84x10xf32>) -> tensor<1x10xf32>
    %29 = stablehlo.broadcast_in_dim %28, dims = [0, 1] : (tensor<1x10xf32>) -> tensor<1x10xf32>
    %30 = stablehlo.broadcast_in_dim %cst, dims = [1] : (tensor<10xf32>) -> tensor<1x10xf32>
    %31 = stablehlo.add %29, %30 : tensor<1x10xf32>
    return %31 : tensor<1x10xf32>
  }
}

{-#
  dialect_resources: {
    builtin: {
      torch_tensor_10_torch.float32: "…",
      torch_tensor_10_84_torch.float32: "…",
      torch_tensor_84_torch.float32: "…",
      torch_tensor_84_120_torch.float32: "…",
      torch_tensor_120_torch.float32: "…",
      torch_tensor_120_256_torch.float32: "…",
      torch_tensor_16_torch.float32: "…",
      torch_tensor_16_6_5_5_torch.float32: "…",
      torch_tensor_6_1_5_5_torch.float32: "…",
      torch_tensor_6_torch.float32: "0x040000006359ECBDAAA5373EDAD46DBD373C03BE7AF0CD3D23E333BE"
    }
  }
#-}
